models/20210220-095903_birds_from_airplanes.pt (torch, 160265 bytes, 16 tensors)

conv1.weight f4 [32, 3, 3, 3]
-0.14725412 -0.124822564 0.15488327 -0.05259636 -0.36366948 -0.36315316 0.045633744 0.13756764
-0.085731134 0.1585673 0.11806502 -0.11158054 0.27255827 0.08815614 -0.17294595 0.365182
0.2806324 0.115427054 -0.31397042 -0.25865525 -0.28463864 0.01622604 -0.2327346 0.0021737474
0.2974314 0.31193405 0.03699842 0.28412277 -0.17163709 -0.15279444 -0.07687237 0.31813163
0.17665648 -0.13293731 0.14636427 0.23565303 0.20767221 0.009490042 -0.38713175 -0.18744566
0.08710305 0.2266273 -0.3227421 -0.06826482 0.20573534 0.34384653 0.06715835 -0.25166196
0.21448706 -0.22963922 -0.28848958 -0.11838395 -0.18040045 0.22536084 0.3920378 0.4415004
0.5367946 0.0931497 0.18568505 0.15620273 -0.07885566 -0.19730908 -0.22279467 0.059922792
-0.048799563 0.17577927 0.118622504 -0.04733242 -0.061037086 -0.1320257 -0.4059069 -0.51429796
0.14568564 -0.06489366 -0.10098126 0.035708304 -0.038164254 -0.049175188 0.07460829 -0.0077247545
0.17175499 -0.05722997 0.32968536 -0.20556995 -0.17668161 0.39006412 -0.21859261 -0.07382687
-0.070902176 0.115406975 0.0998382 0.1974336 -0.30845007 -0.31291866 0.23461904 -0.03940396
-0.32209426 -0.008604419 0.018268215 0.13692875 -0.07774036 -0.3356314 -0.14721246 0.49553588
0.18985584 -0.013454344 0.043605946 0.187902 -0.042282004 0.22622514 0.0088798385 0.2894865
0.06385662 0.23250459 0.16300415 0.3366719 0.35223767 -0.16617908 -0.12761979 -0.080423065
-0.27356628 -0.0863261 -0.20337659 -0.09743726 -0.26665968 -0.20193435 0.20240097 0.02387389
-0.16496345 0.0012714523 -0.008640307 0.08068997 -0.22742696 -0.28606963 -0.3007175 -0.0064998185
-0.18368779 -0.026704658 -0.18459566 -0.1984272 0.3963521 -0.11252433 0.056982767 0.2078924
0.26902196 -0.30189532 0.14037839 -0.27742338 -0.059930097 0.23996313 -0.24538444 -0.015252908
0.33643508 -0.022058306 -0.27171758 -0.08510567 -0.37845737 -0.29249135 0.14941952 -0.17101666
0.043376476 0.258403 -0.24843429 -0.2442942 0.46132076 -0.26093405 0.20042452 0.07246877
-0.29372162 0.25808054 0.20169859 -0.067414716 0.0078050243 0.12464455 -0.18087132 -0.11047537
-0.20153965 -0.118919745 0.28709248 0.065003715 0.06554775 -0.26635975 0.10366487 0.29112333
-0.036411013 -0.1561493 0.089478865 0.3094414 -0.08958434 0.0049004066 0.27823427 0.010804887
-0.26817995 0.024323158 0.1152104 -0.0839517 -0.0423299 0.016529117 0.19008656 0.17372176
0.031500828 -0.27271545 -0.110166326 0.16990498 -0.15273522 -0.049092375 -0.1266459 0.4436302
0.6077239 0.44171077 -0.13918616 0.07419386 0.12687425 -0.14270994 -0.0828611 -0.21585782
0.24393803 -0.12500514 0.22514816 -0.15214889 -0.32140148 0.12152125 -0.01814715 -0.05920753
0.052467816 0.3889506 0.14499469 0.060727876 -0.24217515 -0.26941437 -0.26214448 -0.23817211
0.18529686 0.16825655 0.3116537 -0.09203081 -0.05913484 -0.024293683 -0.3115859 -0.24947022
-0.18439698 0.09635736 0.13371065 0.19417603 0.04312356 0.1487613 0.31343678 0.01116828
-0.06506445 0.25735515 0.06636651 -0.37511858 -0.10285824 -0.2527671 0.007504156 0.016405098
00000000: c9c9 16be f9a2 ffbd b899 1e3e 486f 57bd
00000010: e332 babe 36ef b9be 73ea 3a3d 88de 0c3e
00000020: ce93 afbd 775f 223e 13cc f13d 5784 e4bd
00000030: c28c 8b3e 358b b43d be18 31be 23f9 ba3e
00000040: 0daf 8f3e 0565 ec3d bbc0 a0be 766e 84be
00000050: 28bc 91be 79ec 843c fb51 6ebe 6e75 0e3b
00000060: ee48 983e d2b5 9f3e a88b 173d 8a78 913e
00000070: a2c1 2fbe 2576 1cbe 436f 9dbd 26e2 a23e
00000080: 70e5 343e b820 08be 84e0 153e 074f 713e
00000090: 06a8 543e 1f7c 1b3c 2236 c6be c1f1 3fbe
000000a0: 1563 b23d fd10 683e 743e a5be 6dce 8bbd
000000b0: 49ac 523e a70c b03e 518a 893d d6d9 80be
000000c0: 7fa2 5b3e 8b26 6bbe e8b4 93be 4973 f2bd
000000d0: e5ba 38be fec4 663e 2eb9 c83e 570c e23e
000000e0: 5f6b 093f 45c5 be3d 3924 3e3e 9cf3 1f3e
000000f0: 147f a1bd 640b 4abe 4924 64be 9a71 753d
00000100: 0de2 47bd 7bff 333e 5bf0 f23d a4df 41bd
00000110: 0602 7abd bf31 07be 07d3 cfbe 08a9 03bf
00000120: 9e2e 153e f8e6 84bd 43cf cebd df42 123d
00000130: 1f52 1cbd ec6b 49bd 3bcc 983d f01f fdbb
00000140: 8ae0 2f3e f969 6abd 85cc a83e ee80 52be
00000150: 06ec 34be 7cb6 c73e bed6 5fbe 8b32 97bd
00000160: 2935 91bd 7e5a ec3d f877 cc3d 092c 4a3e
00000170: 2bed 9dbe e036 a0be f93f 703e 0c66 21bd
00000180: 8ae9 a4be 8df9 0cbc 39a7 953c 0d37 0c3e
00000190: 5636 9fbd e1d7 abbe ddbe 16be e1b6 fd3e
000001a0: 9269 423e 9c6f 5cbc 269c 323d 6269 403e
000001b0: e52f 2dbd 90a7 673e be7c 113c 9337 943e
000001c0: 42c7 823d af15 6e3e 8fea 263e 4260 ac3e
000001d0: 7f58 b43e d92a 2abe c3ae 02be d9b4 a4bd
000001e0: e110 8cbe bdcb b0bd f441 50be 308d c7bd
000001f0: 9e87 88be e1c7 4ebe 3342 4f3e 2d93 c33c
00000200: 2eec 28be dca6 a63a 1390 0dbc c840 a53d
00000210: 9de2 68be b877 92be a5f7 99be 6efc d4bb
00000220: a718 3cbe bac3 dabc a506 3dbe 8030 4bbe
00000230: aaee ca3e 2873 e6bd c366 693d bfe1 543e
00000240: 3fbd 893e 0692 9abe 5abf 0f3e 700a 8ebe
00000250: 4379 75bd e5b8 753e 0f46 7bbe 55e7 79bc
00000260: 3841 ac3e 9fb3 b4bc 911e 8bbe e24b aebd
00000270: 2ac5 c1be 6dc1 95be 6e01 193e fe1e 2fbe
00000280: 88ab 313d 664d 843e 8f65 7ebe 4228 7abe
00000290: 3c32 ec3e 2699 85be 163c 4d3e 826a 943d
000002a0: ae62 96be 2223 843e 138a 4e3e ba10 8abd
000002b0: 4ac1 ff3b a445 ff3d 5536 39be e940 e2bd
000002c0: 6960 4ebe 328c f3bd c9fd 923e ab20 853d
000002d0: e63d 863d 4e60 88be 3f4e d43d 1e0e 953e
000002e0: b723 15bd 9ae5 1fbe b240 b73d 1a6f 9e3e
000002f0: ff77 b7bd 9793 a03b b974 8e3e fb06 313c
00000300: e24e 89be 5c41 c73c 6ef3 eb3d deee abbd
00000310: 1e62 2dbd 1268 873c 0da6 423e 1ee4 313e
00000320: 0307 013d 5ca1 8bbe e29e e1bd 92fb 2d3e
00000330: 9f66 1cbe 1615 49bd 76af 01be 7f23 e33e
00000340: cb93 1b3f ea27 e23e d186 0ebe f3f2 973d
00000350: 53eb 013e 8e22 12be 15b3 a9bd d509 5dbe
00000360: e4ca 793e 5901 00be 3d8d 663e ebcc 1bbe
00000370: bc8e a4be 22e0 f83d 55a9 94bc 9883 72bd
00000380: 7ee8 563d 8824 c73e 7d79 143e cbbd 783d
00000390: c3fc 77be aef0 89be cd37 86be 64e3 73be
000003a0: 76be 3d3e 724b 2c3e 1391 9f3e a67a bcbd
000003b0: 6037 72bd 8c03 c7bc 3088 9fbe 1f75 7fbe
000003c0: 90d2 3cbe 0257 c53d 72eb 083e 15d6 463e
000003d0: 54a2 303d e254 183e c97a a03e 29fb 363c
000003e0: 8340 85bd 0ec4 833e 2aeb 873d 8b0f c0be
000003f0: 57a7 d2bd b06a 81be 6ce5 f53b fc63 863c

conv1.bias f4 [32]
0.00042084407 -0.00055178726 0.0003845012 -0.000124736 -2.1887929e-05 -4.2367745e-05 -5.2202588e-05 -2.9965246e-05
-0.00030802062 4.5015702e-05 0.0001263797 -0.0005250564 -2.7394539e-05 6.5539425e-05 -0.0002026197 0.000106288804
8.852888e-05 -1.4085065e-05 -9.081326e-05 -9.204014e-05 0.00021637794 8.107854e-05 6.257958e-05 -4.658704e-05
0.00029017552 8.806107e-05 2.4617002e-05 2.3492963e-05 0.00011456602 -0.00031400472 -3.4515026e-05 -1.3371811e-05
00000000: bca4 dc39 d1a5 10ba e196 c939 91cb 02b9
00000010: f89b b7b7 05b4 31b8 1af4 5ab8 e05d fbb7
00000020: d47d a1b9 3ecf 3c38 cb84 0439 f0a3 09ba
00000030: 53cd e5b7 3672 8938 5076 54b9 5ee7 de38
00000040: 95a8 b938 e54e 6cb7 ff72 beb8 ad05 c1b8
00000050: 83e3 6239 b608 aa38 283d 8338 7466 43b8
00000060: b322 9839 6dad b838 9c80 ce37 c112 c537
00000070: 2a43 f038 00a1 a4b9 3ac4 10b8 7e57 60b7

batch_norm1.weight f4 [32]
1.170221 0.99293786 0.7656214 0.9142232 1.3298932 0.64346826 1.1120373 0.92887336
1.0229299 0.57522416 1.2569484 0.8197708 0.8800411 0.81343615 1.1677593 1.6063199
1.0223944 1.3136489 0.7575771 0.7187592 1.3520392 0.8170793 1.5139458 1.1915729
0.81829035 0.44000098 0.6562338 0.9189475 1.1583375 1.1972276 0.92268604 1.0388689
00000000: cdc9 953f 2d31 7e3f c4ff 433f 880a 6a3f
00000010: f139 aa3f 56ba 243f 3d57 8e3f a5ca 6d3f
00000020: 5eef 823f e441 133f afe3 a03f 80dc 513f
00000030: 604a 613f 5a3d 503f 2379 953f e49b cd3f
00000040: d2dd 823f a625 a83f 93f0 413f 9a00 383f
00000050: 9f0f ad3f 1c2c 513f fac8 c13f 7685 983f
00000060: 7a7b 513f cf47 e13e f0fe 273f 2540 6b3f
00000070: 6744 943f c13e 993f 2735 6c3f a8f9 843f

batch_norm1.bias f4 [32]
-0.57167286 0.048706077 -0.92327183 -0.18193452 -0.3467453 -0.45027912 -0.02646054 0.24978985
-0.29094014 -0.64924234 0.004006414 -0.16524634 -0.399703 -0.4888775 0.0062516876 -0.16307549
-0.006475632 -0.044326168 0.5626475 -0.31883654 -0.23241058 0.25915325 -0.26320454 0.17540221
0.13257276 -0.19371617 0.01665391 -0.089053914 -0.19874898 0.059644505 -0.29024765 0.35935038
00000000: 2759 12bf 0680 473d 8b5b 6cbf 0b4d 3abe
00000010: 9a88 b1be fc8a e6be c6c3 d8bc e9c8 7f3e
00000020: 1bf6 94be bf34 26bf 3d48 833b 5636 29be
00000030: dfa5 ccbe 274e fabe f5da cc3b 43fd 26be
00000040: 8a31 d4bb 5b8f 35bd ab09 103f 8b3e a3be
00000050: 0afd 6dbe bcaf 843e bfc2 86be a39c 333e
00000060: 27c1 073e 885d 46be c86d 883c e661 b6bd
00000070: da84 4bbe cc4d 743d 579b 94be c6fc b73e

batch_norm1.running_mean f4 [32]
-0.046281718 0.0819301 0.2813327 0.059541073 -0.30384493 -0.3862474 0.12275246 0.50675267
-0.2720239 0.09425946 -0.19023795 -0.3074933 0.055966835 0.13721466 0.2652111 0.09396449
-0.14471658 0.19979408 0.38664898 0.2564895 0.03278099 -0.49544472 0.14899015 0.1380937
0.22016932 0.25026494 0.37162703 0.08011162 0.013314172 -0.09980579 -0.07977294 1.0589432
00000000: e691 3dbd f8ca a73d d70a 903e 57e1 733d
00000010: 9091 9bbe 38c2 c5be a465 fb3d 8bba 013f
00000020: b746 8bbe 1b0b c13d bdcd 42be c36f 9dbe
00000030: 7b3d 653d 0082 0c3e c0c9 873e 7470 c03d
00000040: 9530 14be d296 4c3e dbf6 c53e 9752 833e
00000050: 5c45 063d eeaa fdbe e090 183e 6f68 0d3e
00000060: 1174 613e ba22 803e e645 be3e 9011 a43d
00000070: af23 5a3c fa66 ccbd ff5f a3bd 738b 873f

batch_norm1.running_var f4 [32]
0.07637979 0.017691411 0.106884904 0.026350306 0.059101466 0.114169784 0.027862275 0.17236787
0.04697684 0.019272901 0.032246787 0.030835938 0.14024763 0.035833955 0.038085833 0.11024126
0.05523439 0.119169295 0.1174121 0.045651745 0.07160155 0.0676787 0.064274006 0.10775629
0.01630231 0.041045196 0.122766666 0.08376097 0.04247463 0.044833135 0.026702333 0.2799903
00000000: 026d 9c3d 94ed 903c 79e6 da3d 99dc d73c
00000010: 6114 723d d9d1 e93d 6d3f e43c 3481 303e
00000020: c96a 403d 34e2 9d3c 3515 043d a69b fc3c
00000030: 139d 0f3e a0c6 123d e4ff 1b3d 2bc6 e13d
00000040: 753d 623d 080f f43d c175 f03d 53fd 3a3d
00000050: d5a3 923d 219b 8a3d 17a2 833d 54af dc3d
00000060: 6c8c 853c 021f 283d 176d fb3d df8a ab3d
00000070: e1f9 2d3d f3a2 373d dabe da3c e35a 8f3e

conv2.weight f4 [16, 32, 3, 3]
-0.09927168 -0.079583265 -0.047299087 0.02520558 0.0021964707 -0.049121354 -0.14808474 -0.041178137
0.018498186 -0.077603534 0.124843426 -0.1873707 -0.08591374 0.011916482 -0.011079179 -0.0850954
0.2776018 0.080971174 -0.27189693 -0.15252687 -0.3729439 -0.23526812 -0.03749774 -0.2374222
-0.09849156 -0.071884945 -0.0587234 -0.0905713 -0.06371775 0.03959369 0.11672418 0.015840456
0.27161252 0.39349613 -0.024335876 -0.11497922 -0.0014399542 0.023893826 0.11218637 -0.090778045
0.2007368 0.32682866 -0.25197276 0.019297205 0.117097236 0.10789159 0.16889073 0.08003735
0.17683618 0.104959235 0.16939305 0.11754372 -0.15267192 0.028333234 0.030731795 0.081481256
-0.0785596 0.14531153 0.07002681 -0.23953572 0.14583178 0.111963466 -0.17161743 -0.018777214
0.08232693 0.044725258 -0.098041296 0.19479927 0.10581917 0.12034986 -0.25433686 -0.07458433
-0.06734383 -0.068161525 0.1474276 -0.27825668 -0.059309017 0.008383825 -0.21492483 0.16850099
-0.017879844 0.08804425 -0.03471909 0.017644854 0.016329646 -0.08163613 0.013530385 0.10994964
-0.13824022 -0.15225236 0.053202268 0.038523033 0.25050423 0.13804021 -0.18731953 0.025302377
0.081129424 -0.38091186 -0.043825727 0.08293041 -0.11053737 0.048177194 0.15699267 0.42166358
0.03627945 0.12145111 0.15177494 0.3190285 -0.07251407 -0.17185998 -0.06659678 0.021768084
-0.18639286 -0.020110257 -0.21136121 -0.20033549 -0.06392937 0.0007541856 0.061844647 0.069824405
-0.107085235 0.04904823 0.19203262 0.14223176 -0.23079391 0.05413845 0.09194469 -0.16783893
0.34547985 0.17581025 0.013303132 0.012671987 0.35945708 0.13275596 -0.08705619 -0.056947444
-0.16231003 0.044950064 0.18212017 -0.107861705 -0.14873064 -0.1271116 0.31713098 -0.25417936
0.03085505 0.1762896 0.1212334 -0.1450853 -0.11967432 0.4443785 -0.044482697 -0.51951075
0.29433548 0.15349396 -0.23082788 0.041466244 0.42187434 0.16346943 -0.09894427 0.32248524
0.33580402 0.015397547 -0.042673647 -0.05969192 -0.022302506 0.0062278514 -0.15346523 -0.12625565
0.09104159 -0.118956506 -0.23511715 0.100009605 0.0937596 -0.017044691 0.026386868 -0.23281367
0.055926718 -0.10852553 0.14191881 -0.31347314 -0.14551497 -0.19462985 -0.025762184 -0.14823493
-0.3325523 -0.18011065 0.1522013 -0.17359689 -0.3748042 0.061595276 -0.034086674 -0.026420193
-0.0021321082 0.061767098 -0.06494773 0.033382982 0.118150994 0.019992333 -0.044287812 0.53254926
0.19180958 -0.07737519 -0.09862724 0.15038964 0.057809778 -0.5883364 0.26516467 0.08964305
-0.11997159 0.015943222 0.40575886 -0.0017681533 -0.02984846 0.24182396 0.4280869 -0.13318713
-0.0013132488 -0.2549373 0.22392467 0.02641258 0.050996725 0.21375972 0.041147903 -0.3658419
0.12786657 -0.042299435 0.001804826 -0.11280096 0.101689935 0.21514553 -0.19918253 -0.0761644
0.062025003 0.23150921 0.13973564 -0.12165507 -0.08261218 0.18654041 -0.2298871 0.00028850697
0.4129867 0.056357265 -0.3466887 -0.07510255 0.05624438 -0.019547872 -0.29536507 0.07630919
0.21424837 -0.402863 -0.15886717 0.13759074 -0.11775055 -0.1915721 0.06632144 -0.17123169
00000000: f34e cbbd 8dfc a2bd b0bc 41bd ef7b ce3c
00000010: aaf2 0f3b 7933 49bd 87a3 17be 68aa 28bd
00000020: 8289 973c 9aee 9ebd e9ad ff3d 1bde 3fbe
00000030: 8bf3 afbd 593d 433c 7285 35bc 7f46 aebd
00000040: d321 8e3e 37d4 a53d 1336 8bbe 0130 1cbe
00000050: 81f2 bebe 20ea 70be 3b97 19bd ce1e 73be
00000060: f1b5 c9bd 6a38 93bd f387 70bd 727d b9bd
00000070: 747e 82bd fe2c 223d 160d ef3d d8c3 813c
00000080: cc10 8b3e 5378 c93e 085c c7bc 3a7a ebbd
00000090: d8bc bcba fcbc c33c f8c1 e53d d7e9 b9bd
000000a0: f38d 4d3e 1656 a73e 9302 81be 2c15 9e3c
000000b0: add0 ef3d 44f6 dc3d b1f1 2c3e 9fea a33d
000000c0: 8b14 353e def4 d63d 5f75 2d3e c3ba f03d
000000d0: 0756 1cbe 191b e83c 3fc1 fb3c a5df a63d
000000e0: dbe3 a0bd 8ccc 143e 376a 8f3d da48 75be
000000f0: ed54 153e 1a4d e53d 7bbc 2fbe acd2 99bc
00000100: 059b a83d d531 373d e0c9 c8bd 7679 473e
00000110: b9b7 d83d fd79 f63d 7138 82be abbf 98bd
00000120: 90eb 89bd 4598 8bbd 43f7 163e a977 8ebe
00000130: 03ee 72bd 505c 093c 4115 5cbe 868b 2c3e
00000140: c078 92bc 8b50 b43d 9b35 0ebd f18b 903c
00000150: c0c5 853c d830 a7bd 8cae 5d3c 472d e13d
00000160: d88e 0dbe 0be8 1bbe 9fea 593d 54ca 1d3d
00000170: 1742 803e 6a5a 0d3e b1d0 3fbe ee46 cf3c
00000180: 2f27 a63d e106 c3be 9b82 33bd 6bd7 a93d
00000190: 6b61 e2bd 7355 453d b0c2 203e 4ae4 d73e
000001a0: c399 143d 5cbb f83d e46a 1b3e b457 a33e
000001b0: 4282 94bd 10fc 2fbe e563 88bd fb52 b23c
000001c0: c5dd 3ebe 44be a4bc 136f 58be bf24 4dbe
000001d0: 67ed 82bd 8ab4 453a d050 7d3d 1900 8f3d
000001e0: 814f dbbd cce6 483d 33a4 443e 34a5 113e
000001f0: 3d55 6cbe 48c0 5d3d 7f4d bc3d f8dd 2bbe
00000200: bce2 b03e 9a07 343e 61f5 593c 2a9e 4f3c
00000210: c20a b83e 2ef1 073e 844a b2bd b941 69bd
00000220: 9a34 26be 8f1d 383d b67d 3a3e 99e6 dcbd
00000230: d84c 18be 8b29 02be fe5e a23e cc23 82be
00000240: bbc3 fc3c 4385 343e 3849 f83d 3e91 14be
00000250: cf17 f5bd 9485 e33e 7d33 36bd a8fe 04bf
00000260: 24b3 963e 852d 1d3e 255e 6cbe 82d8 293d
00000270: eaff d73e 8864 273e 4ba3 cabd c91c a53e
00000280: 81ee ab3e fe45 7c3c 90ca 2ebd 847f 74bd
00000290: bfb3 b6bc 0113 cc3b fd25 1dbe 2949 01be
000002a0: 0374 ba3d 789f f3bd 8dc2 70be d6d1 cc3d
000002b0: 0805 c03d 4fa1 8bbc 4629 d83c b566 6ebe
000002c0: 6a13 653d a242 debd 2a53 113e 8d7f a0be
000002d0: e001 15be 0c4d 47be 370b d3bc e6ca 17be
000002e0: 4c44 aabe ed6e 38be a8da 1b3e 62c3 31be
000002f0: 56e6 bfbe 544b 7c3d 789e 0bbd 296f d8bc
00000300: d7ba 0bbb 7fff 7c3d 5103 85bd 98bc 083d
00000310: 26f9 f13d f6c6 a33c 2367 35bd 2655 083f
00000320: bb69 443e e276 9ebd 14fd c9bd beff 193e
00000330: f2c9 6c3d 379d 16bf aac3 873e c796 b73d
00000340: aab3 f5bd 5c9b 823c a0bf cf3e 61c1 e7ba
00000350: c284 f4bc b3a0 773e 352e db3e 3562 08be
00000360: 5121 acba 2487 82be 824c 653e 325f d83c
00000370: f1e1 503d d4e3 5a3e b48a 283d a14f bbbe
00000380: 74ef 023e 2c42 2dbd e98f ec3a 3104 e7bd
00000390: d042 d03d 1c4f 5c3e 81f6 4bbe 15fc 9bbd
000003a0: ee0d 7e3d c010 6d3e dc16 0f3e 4b26 f9bd
000003b0: 9330 a9bd 7304 3f3e 8667 6bbe c042 9739
000003c0: fe72 d33e e0d6 663d 2e81 b1be 5ecf 99bd
000003d0: 8260 663d dc22 a0bc 173a 97be fe47 9c3d
000003e0: ed63 5b3e 0f44 cebe 13ae 22be 96e4 0c3e
000003f0: 3327 f1bd 7a2b 44be 89d3 873d 5c57 2fbe

conv2.bias f4 [16]
-1.4856646e-05 3.1980988e-05 5.370353e-06 2.2809045e-05 2.251654e-05 -2.5394696e-05 5.1888794e-05 -6.2512495e-06
2.6295877e-05 1.3284871e-05 -1.4273144e-05 4.1003796e-06 2.1908125e-05 1.055282e-05 2.392878e-05 3.295212e-05
00000000: cf40 79b7 5323 0638 fb32 b436 0d56 bf37
00000010: e7e1 bc37 b206 d5b7 2ba3 5938 d3c1 d1b6
00000020: f795 dc37 16e2 5e37 b076 6fb7 fe95 8936
00000030: 57c7 b737 040c 3137 aaba c837 1236 0a38

batch_norm2.weight f4 [16]
0.95659053 0.97880703 1.1553689 1.034255 0.8998763 1.2576668 1.1720392 1.2924975
1.0839579 1.3021513 1.4608395 1.1135191 1.1475246 1.121539 0.94723934 1.6265099
00000000: 1ee3 743f 1993 7a3f 21e3 933f 7862 843f
00000010: 4b5e 663f 3afb a03f 6105 963f 8f70 a53f
00000020: 22bf 8a3f e5ac a63f cafc ba3f cb87 8e3f
00000030: 16e2 923f 978e 8f3f 477e 723f 7a31 d03f

batch_norm2.bias f4 [16]
-0.56719273 -0.6857635 -0.62092274 -0.6722597 -0.48852593 -0.48471305 -0.68471634 -0.37523213
-0.17002997 -0.11256664 -0.38150468 -0.57091504 -0.6632484 -0.37875858 -0.5977851 -0.371479
00000000: 8b33 11bf 328e 2fbf cbf4 1ebf 3619 2cbf
00000010: 1220 fabe 4f2c f8be 9249 2fbf 6d1e c0be
00000020: 561c 2ebe 5789 e6bd 9554 c3be 7d27 12bf
00000030: a6ca 29bf a5ec c1be 7208 19bf 7f32 bebe

batch_norm2.running_mean f4 [16]
1.1113831 -0.6736756 2.6123133 -0.4140631 -2.6171327 -0.49377087 -0.36751992 -1.4832249
-0.74193335 -1.6868623 1.4067745 -1.9038942 -0.52887493 -3.3794954 -1.552623 1.6961067
00000000: cd41 8e3f 0176 2cbf 2430 2740 1400 d4be
00000010: 1a7f 27c0 89cf fcbe 922b bcbe 50da bdbf
00000020: 58ef 3dbf 1beb d7bf 3011 b43f ceb2 f3bf
00000030: 5964 07bf a749 58c0 5abc c6bf 061a d93f

batch_norm2.running_var f4 [16]
6.395369 4.615779 7.279795 6.540207 6.433251 7.839793 7.6062684 12.599018
14.31752 13.089103 8.373499 6.520845 8.1544075 9.205392 5.4153147 10.511928
00000000: dda6 cc40 76b4 9340 15f4 e840 6049 d140
00000010: 31dd cd40 96df fa40 8d66 f340 9495 4941
00000020: 9014 6541 f76c 5141 daf9 0541 c3aa d040
00000030: 7478 0241 4949 1341 424a ad40 db30 2841

fc1.weight f4 [32, 1024]
0.13957144 0.00907453 -0.1271813 -0.07802114 0.059510943 0.048132 0.051576935 0.19522099
-0.070148036 -0.07621513 -0.15268686 -0.1508764 0.12571555 -0.09365249 -0.051614016 0.104579724
-0.03150223 -0.13009885 0.13548782 0.10239209 -0.038724992 0.07776887 -0.15916458 0.014870498
0.0016711508 -0.24084498 0.25556085 0.4348269 0.21549742 0.055638414 0.02286632 -0.0692738
-0.09120058 -0.19633782 0.08857616 -0.06912972 -0.050336473 -0.22889933 0.06798012 -0.34682646
0.102073394 0.14900786 -0.17801885 0.40133956 0.009356181 -0.12138094 -0.10614477 0.107571594
0.017128518 0.18750219 -0.029965162 -0.067231975 0.016248936 -0.30081686 -0.15903696 -0.14443834
0.0650782 0.1645716 0.17816196 0.0881471 -0.06917677 0.20328946 0.08069046 0.05918168
-0.023569593 -0.03254619 0.021756874 0.052837547 -0.14933757 -0.12320684 -0.07098328 -0.162908
-0.017393162 0.0058383862 -0.19837923 -0.15545128 0.1660864 -0.3371882 -0.2228778 -0.14341232
0.013622004 0.07193201 0.012737255 0.10673828 0.09887063 -0.028271219 0.2125603 -0.16388796
-0.31960788 -0.01659738 0.0027151958 0.09662197 -0.09056883 0.10693137 0.26825336 -0.105087206
0.15614145 0.15953392 -0.015259336 -0.105391756 -0.11724373 0.19216044 0.18401703 -0.13558574
0.08571521 0.034610193 -0.10054467 0.38989535 0.024043746 0.09899334 0.013280002 0.021011418
0.037613023 0.20877284 -0.06687944 -0.026122458 0.10074571 0.06506211 0.023797357 0.08225021
-0.15443882 0.1078721 0.1999676 0.11248446 0.046833117 0.051210515 0.06836515 0.026028987
-0.04547487 -0.20421243 -0.09448945 0.065879576 0.001664623 0.10213549 -0.05148 0.24486575
0.05087111 -0.14678755 -0.5358983 -0.2804343 0.029596686 -0.0741879 0.11459148 -0.01250455
0.13586608 0.010557259 -0.4122536 -0.2754816 0.40069714 0.38665158 0.22335397 -0.07032259
0.095391504 0.0847768 -0.11149509 0.07971278 0.0997665 0.0054616276 0.12444043 -0.26117155
0.048340812 0.24123694 -0.21226206 -0.2703459 0.36330974 -0.09938597 -0.043082535 -0.2681594
0.17802802 0.0902577 -0.022208303 -0.022751356 0.043614537 -0.16498554 0.035699658 -0.036674764
-0.1905691 0.10461075 0.02221345 0.3005934 0.16840808 -0.026481925 0.050190296 -0.049434707
-0.1967681 0.027071632 0.08072152 0.2664374 0.06548865 0.01692208 0.071988 -0.24369098
0.09602291 0.013502563 0.06476026 0.26731372 0.4155037 0.0882805 0.056264564 -0.19259627
-0.25849316 -0.01822256 0.0012098744 0.07448218 0.07014189 -0.26760495 0.066958696 -0.06586546
-0.20910335 0.0810309 0.32210222 0.20602715 -0.35028777 -0.21756446 -0.051219895 0.24402976
-0.07298242 -0.14928453 -0.3945288 0.08224602 -0.39673325 -0.1285209 -0.19624917 0.19029097
-0.009308635 -0.012504432 0.04526288 -0.5777818 0.19356291 -0.034482706 0.1863098 -0.07421664
0.19538854 0.27189317 0.06969059 0.0025284628 -0.13292462 0.096653454 0.07751068 0.26353583
0.094154134 -0.099662066 -0.19533321 -0.13619041 -0.15036888 0.10367362 -0.059258364 -0.1081288
-0.2561195 0.04865347 -0.15454678 0.0757278 -0.29932487 -0.23625128 0.16167593 0.021568945
00000000: d1eb 0e3e 56ad 143c d13b 02be 8cc9 9fbd
00000010: bfc1 733d 0f26 453d 5642 533d 03e8 473e
00000020: c6a9 8fbd ae16 9cbd f259 1cbe 587f 1abe
00000030: 94bb 003e e0cc bfbd 3869 53bd e52d d63d
00000040: 7b08 01bd a238 05be 52bd 0a3e f2b2 d13d
00000050: 199e 1ebd 4945 9f3d 0afc 22be 64a3 733c
00000060: 840a db3a 11a0 76be dfd8 823e a2a1 de3e
00000070: 5bab 5c3e 1be5 633d 2652 bb3c 6cdf 8dbd
00000080: 5fc7 babd c80c 49be 6b67 b53d e293 8dbd
00000090: 9e2d 4ebd 9664 6abe 2939 8b3d 3d93 b1be
000000a0: db0b d13d 8495 183e 934a 36be 617c cd3e
000000b0: ab4a 193c 9296 f8bd 6e62 d9bd 7f4e dc3d
000000c0: 1b51 8c3c 9300 403e 8079 f5bc ebb0 89bd
000000d0: 7d1c 853c ab04 9abe 96da 22be a5e7 13be
000000e0: b847 853d 7585 283e 1770 363e 7786 b43d
000000f0: 8dac 8dbd 1d2b 503e 0a41 a53d 7d68 723d
00000100: 0515 c1bc 274f 05bd 793b b23c 2f6c 583d
00000110: f3eb 18be de53 fcbd af5f 91bd 5bd1 26be
00000120: 1b7c 8ebc ef4f bf3b ed23 4bbe 9f2e 1fbe
00000130: 8e12 2a3e efa3 acbe 143a 64be aeda 12be
00000140: d32e 5f3c 1751 933d ebaf 503c 9999 da3d
00000150: af7c ca3d 0b99 e7bc 68a9 593e 3fd2 27be
00000160: a5a3 a3be 3bf7 87bc 6df1 313b bde1 c53d
00000170: 277c b9bd d6fe da3d 8158 893e f637 d7bd
00000180: 8be3 1f3e dc5c 233e 4b02 7abc a2d7 d7bd
00000190: 7b1d f0bd b5c5 443e f66e 3c3e fdd6 0abe
000001a0: 758b af3d 6bc3 0d3d 5dea cdbd 5da0 c73e
000001b0: 64f7 c43c 05bd ca3d 5e94 593c 2320 ac3c
000001c0: 1d10 1a3d 8cc8 553e 16f8 88bd c4fe d5bc
000001d0: c453 ce3d 493f 853d adf2 c23c cc72 a83d
000001e0: 3625 1ebe 0cec dc3d 4ec4 4c3e 415e e63d
000001f0: 15d4 3f3d 1ec2 513d 0703 8c3d be3a d53c
00000200: db43 3abd 101d 51be af83 c1bd dfeb 863d
00000210: 7b2f da3a 692c d13d b1dc 52bd 16be 7a3e
00000220: 3a5e 503d 7a4f 16be a230 09bf 1695 8fbe
00000230: c074 f23c d3ef 97bd f0ae ea3d e2df 4cbc
00000240: 7a20 0b3e 5bf8 2c3c e712 d3be ed0b 8dbe
00000250: 2d28 cd3e 32f7 c53e e7b6 643e 4a05 90bd
00000260: 9f5c c33d 759f ad3d 8a57 e4bd 7440 a33d
00000270: 6152 cc3d 74f7 b23b a0da fe3d 47b8 85be
00000280: 0401 463d d106 773e 3a5b 59be c76a 8abe
00000290: bc03 ba3e df8a cbbd 5077 30bd 304c 89be
000002a0: fa4c 363e 07d9 b83d 30ee b5bc 0d61 babc
000002b0: 28a5 323d f8f1 28be ce39 123d 4738 16bd
000002c0: 8c24 43be 293e d63d fbf8 b53c 61e7 993e
000002d0: 2b73 2c3e 9ff0 d8bc 5794 4d3d 0c7c 4abd
000002e0: 947d 49be 54c5 dd3c 5351 a53d 7c6a 883e
000002f0: ea1e 863d 2da0 8a3c 726e 933d 218a 79be
00000300: a9a7 c43d db39 5d3c 07a1 843d 58dd 883e
00000310: e7bc d43e 68cc b43d ac75 663d f537 45be
00000320: 3759 84be 7a47 95bc a694 9e3a 1d8a 983d
00000330: 8da6 8f3d 8403 89be a421 893d 78e4 86bd
00000340: 301f 56be 87f3 a53d 95ea a43e c8f8 523e
00000350: eb58 b3be 38c9 5ebe f4cb 51bd f0e2 793e
00000360: cf77 95bd 0bde 18be aeff c9be 9a70 a83d
00000370: 9f20 cbbe fc9a 03be 8bf5 48be a3db 423e
00000380: 3f83 18bc 64df 4cbc 9265 393d 82e9 13bf
00000390: 5b35 463e bd3d 0dbd ffc7 3e3e e5fe 97bd
000003a0: ef13 483e 9535 8b3e f1b9 8e3d 91b4 253b
000003b0: 641d 08be 3ff2 c53d ebbd 9e3d 2bee 863e
000003c0: e2d3 c03d a01b ccbd 6e05 48be 8075 0bbe
000003d0: 4dfa 19be d652 d43d e6b8 72bd a272 ddbd
000003e0: 1822 83be dc48 473d 8341 1ebe 2d17 9b3d
000003f0: 1c41 99be dbeb 71be 608e 253e 5bb1 b03c

fc1.bias f4 [32]
-0.37410283 0.028950509 -0.23700574 0.13319254 -0.054886088 0.053971965 -0.003521292 -0.031953238
-0.042141743 -0.20859392 -0.042046543 0.07070477 0.1638765 0.06491216 0.19224045 -0.15223496
-0.06379905 -0.2664879 -0.08204411 0.19218512 0.033381775 -0.118005894 -0.2706798 -0.18162076
0.17412385 0.049501285 0.14830059 -0.09773462 -0.1544883 -0.017887954 -0.18849763 -0.09939841
00000000: 688a bfbe 9e29 ed3c a2b1 72be a063 083e
00000010: 3cd0 60bd b511 5d3d 7ac5 66bb 66e1 02bd
00000020: d29c 2cbd a599 55be ff38 2cbd aacd 903d
00000030: 3ecf 273e abf0 843d aeda 443e 7be3 1bbe
00000040: 14a9 82bd 1a71 88be be06 a8bd 2dcc 443e
00000050: 54bb 083d 13ad f1bd 8b96 8abe cbfa 39be
00000060: 864d 323e dcc1 4a3d 1cdc 173e 1729 c8bd
00000070: 2e32 1ebe c289 92bc 8605 41be 6591 cbbd

fc2.weight f4 [2, 32]
-0.8080965 -0.62239903 0.64925855 0.6254353 -0.70066404 -0.88149416 0.7724753 -0.909621
-0.3890978 -0.6915823 0.96815693 0.8032011 -0.9297042 -0.73114663 -0.90574676 -0.6714419
-0.5852292 -0.8324099 -0.85513514 -0.67411417 -0.682536 -0.68165094 -0.85805595 -0.30357385
0.649313 0.7761674 0.89245856 0.5534589 0.78714967 0.42497024 0.70400035 0.76394755
0.8215187 0.6862381 -0.45618936 -0.6702987 0.8632765 0.80844784 -0.5500908 0.87700593
0.14637057 0.8889855 -0.88639224 -0.7633233 0.886135 0.6555419 0.9231711 0.4822066
0.60124594 0.75258 0.7802906 0.76092595 0.4498111 0.7699101 0.9127768 0.39687657
-0.72786254 -0.7928267 -0.7114387 -0.5224387 -0.75969905 -0.7198652 -0.753469 -0.79200304
00000000: 6adf 4ebf 8b55 1fbf cf35 263f 871c 203f
00000010: b85e 33bf 9aa9 61bf f1c0 453f ecdc 68bf
00000020: d437 c7be 8a0b 31bf 22d9 773f 969e 4d3f
00000030: 1801 6ebf 6d2c 3bbf 05df 67bf 9ee3 2bbf
00000040: 95d1 15bf d118 55bf 23ea 5abf bf92 2cbf
00000050: aeba 2ebf ad80 2ebf 8ea9 5bbf 086e 9bbe
00000060: 6039 263f e8b2 463f 2a78 643f 7caf 0d3f
00000070: a482 493f b395 d93e 5e39 343f 1192 433f
00000080: 0d4f 523f 4dad 2f3f a791 e9be b298 2bbf
00000090: b0ff 5c3f 70f6 4e3f c0d2 0cbf 7683 603f
000000a0: 2be2 153e 8e94 633f 9aea 62bf 2869 43bf
000000b0: bed9 623f 98d1 273f f154 6c3f c9e3 f63e
000000c0: 41eb 193f 15a9 403f 20c1 473f 0bcc 423f
000000d0: a44d e63e d418 453f beab 693f 6833 cb3e
000000e0: 3355 3abf b1f6 4abf d920 36bf 8bbe 05bf
000000f0: a37b 42bf 1649 38bf 58e3 40bf b6c0 4abf

fc2.bias f4 [2]
0.091275334 0.14778396
00000000: 90ee ba3d ae54 173e
