models/20210215-193728_birds_from_airplanes.pt (torch, 160264 bytes, 16 tensors)

conv1.weight f4 [32, 3, 3, 3]
000000 e4 2b 44 3d 14 5d 3c 3d 09 9d 17 bd 22 9c 23 3e
       0.04789342 0.045987204 -0.037014995 0.15977529
000010 ba c1 55 bc 2d 9a cc be 6a b7 7d 3d 81 6e ab 3e
       -0.013046676 -0.39961377 0.061942495 0.33482745
000020 ac 65 3a be 38 18 03 bd 53 05 85 be bc 4e 6d be
       -0.18202847 -0.03200552 -0.25980625 -0.23174566
000030 34 b6 01 3e 43 2b 25 bd 63 d3 6b be 5f f6 7e bd
       0.12667161 -0.04032446 -0.23029856 -0.062246677
000040 46 d2 e9 3e 80 b3 18 3d 9a 17 8c bd f5 18 d7 3d
       0.45668238 0.03728056 -0.06840439 0.10502807
000050 c9 13 eb ba 6d 7f de ba 59 b7 6b 3e 29 ec d3 be
       -0.0017934974 -0.0016975232 0.2301916 -0.41391113
000060 b5 d4 13 3d 24 65 79 3e e6 6a 75 bc a0 75 76 3d
       0.036091525 0.24354988 -0.0149791 0.06017077
000070 bf 93 8f 3e c5 71 6c 3d 34 a2 60 3e a9 12 d9 3d
       0.2804241 0.057725687 0.21936876 0.10599262
000080 4a 04 25 be 18 3f e2 bd a6 a1 1e 3e 6f 98 2d 3e
       -0.16114917 -0.110471904 0.15491351 0.1695268
000090 a0 b1 6e 3e db 66 8b 3e 2c 7d 3a be 19 f9 06 3e
       0.23309946 0.2722691 -0.18211812 0.1318096
0000a0 0b fc 15 3c 3e 9a 5f be 31 c8 4b 3e 40 87 11 be
       0.00915433 -0.21836182 0.19900586 -0.1421175
0000b0 e7 ba 9d 3e bf 17 b1 bc ca 04 87 be f4 88 ab be
       0.30806658 -0.021617768 -0.2637084 -0.33502924
0000c0 27 e3 86 3d 10 61 6c be 24 a0 6f be bc 7c 13 be
       0.065862946 -0.23083901 -0.23400933 -0.14403051
0000d0 34 b1 d0 be f9 2f da bb b9 a4 0e be f3 2f 16 be
       -0.40760195 -0.006658551 -0.13930024 -0.14666729
0000e0 7b 2b e4 3e 86 b7 10 be 68 93 31 be 86 55 62 bd
       0.44564423 -0.14132509 -0.17341387 -0.055257343
0000f0 68 e0 06 be fc 87 8c 3e 8d 76 32 bd 69 c5 b3 bd
       -0.13171542 0.27447498 -0.04357009 -0.087778874
000100 0b 51 f6 bd 5e 3d 91 3e 22 69 83 3e df 70 21 be
       -0.120271765 0.28367132 0.25666147 -0.15765713
000110 a8 21 dc bd 06 f0 cf 3d e3 65 16 3e eb ab 98 be
       -0.10748607 0.10153203 0.14687304 -0.29818663
000120 6b ee 56 3d a7 8f 81 3d ac e5 d4 3c 6a a6 af 3e
       0.052473467 0.06326228 0.025988422 0.3430665
000130 79 eb 09 be 7a 47 8f be af bc 9e 3e 2f 6d 41 3e
       -0.13468732 -0.2798422 0.3100333 0.18889306
000140 b5 86 be be c7 4f 66 3e 8e 07 eb 3e 33 f1 b4 3e
       -0.37212148 0.2249137 0.459042 0.3534027
000150 38 33 1a 3e c9 c1 7a 3e 7c 2a b0 3d 2c 88 df be
       0.15058601 0.24487986 0.08601853 -0.43658578
000160 0b 81 af be 92 6a d0 bd e5 d3 17 3e f0 88 6a 3e
       -0.3427814 -0.10176577 0.14826925 0.229038
000170 28 81 fa 3d 2c 71 db bc f0 97 2f 3c ed 10 8a 3d
       0.12231666 -0.026787363 0.010717377 0.067415096
000180 a6 07 17 be 4c 88 62 be 6d bf 0f be bb 73 8c 3c
       -0.14749011 -0.22122306 -0.14037867 0.017145028
000190 04 50 35 be 90 51 ac bc a0 d6 14 be 11 83 8d 3d
       -0.17706305 -0.021034986 -0.14534998 0.069097646
0001a0 4d 48 0b be 51 2d 37 3c e0 29 2a 3e 12 4b af 3b
       -0.136018 0.011180238 0.16617537 0.0053495253
0001b0 f4 3b 76 3e 46 cf 99 3e 36 bc 2c 3e 3b 75 b2 bd
       0.24046308 0.3004095 0.16868672 -0.08713766
0001c0 ae d8 0a be de e4 3f 3e 67 df 96 bd d8 1a dc 3d
       -0.13559219 0.1873965 -0.07366829 0.107473075
0001d0 ea c0 e3 3d 8d b2 98 bd 22 27 41 3d ec 52 87 3d
       0.1112078 -0.07455931 0.04715646 0.06607613
0001e0 1d a0 20 be de 3e 57 be 84 ca fd bd f8 98 b6 be
       -0.15686078 -0.21020076 -0.123921424 -0.3566358
0001f0 d1 b9 ee 3c f0 44 e8 be 71 79 d3 3c 6c 01 0b bd
       0.029141339 -0.45365095 0.025814744 -0.033936903
000200 15 49 b8 bd af ae 16 be de 5b 1f be 44 b1 b4 be
       -0.08998314 -0.14715074 -0.15562388 -0.35291493
000210 ce 35 ac bd a0 a4 eb 3d bf d6 9b be db df d8 bc
       -0.084087 0.11506009 -0.30437276 -0.02647393
000220 6a 12 78 be a2 6b 4e bd f5 e9 43 be 4b 03 c8 be
       -0.24225774 -0.050395615 -0.19132216 -0.39065012
000230 c4 7a a2 be ce 8d c0 3c d9 80 c4 be 51 2c 4f be
       -0.31734288 0.023505118 -0.38379553 -0.20231749
000240 25 3a 5c 3e bf ae 58 bd d1 9b 67 3e 4e e4 e2 3a
       0.21506555 -0.052901026 0.22618033 0.0017310472
000250 c5 c0 05 3d bc 1b 42 3e 5d bc 05 be ee 68 c4 bd
       0.032654542 0.18955892 -0.13060136 -0.09590326
000260 ac 99 55 bb 06 b8 6d 3e 64 b9 ab bc 6e 99 99 3e
       -0.0032592816 0.2321473 -0.020962425 0.2999987
000270 67 b1 d1 3d 71 13 5c bc ce 7f b9 3e 27 a4 33 bc
       0.10238915 -0.01343237 0.3623032 -0.01096443
000280 17 c2 09 3e db d1 fa 3d 01 ae a2 3e f0 3d 19 3e
       0.13452946 0.12247058 0.3177338 0.14965034
000290 9c b5 a5 bd c3 30 07 3e f1 8b d7 bd 1d 09 96 3d
       -0.0809128 0.13202195 -0.105247386 0.07325957
0002a0 29 89 58 3d 6f 79 7d be 13 9d f3 be 23 40 fd 3c
       0.05286518 -0.24753354 -0.47580776 0.030914372
0002b0 94 e6 44 3e cf 0d 53 3e 5c b9 13 be ce ba 97 be
       0.19228584 0.20610736 -0.14426178 -0.29634708
0002c0 86 7d 05 3d 6b cd b2 3d 15 65 99 bb 20 e7 94 3d
       0.03259041 0.087305866 -0.0046812394 0.07270646
0002d0 da dc 3d be da 65 47 be ad d5 90 3e d2 64 cf be
       -0.1854128 -0.19472447 0.28288022 -0.40506607
0002e0 5f aa 7b be da cc 18 bc 00 1d 99 3d 25 de 9e 3e
       -0.2457671 -0.009326184 0.074762344 0.31028858
0002f0 34 36 49 3e 6c 37 9b bd ef af a1 be 88 91 18 3d
       0.19649583 -0.0757893 -0.3157954 0.037248164
000300 d9 71 32 3e da 3e 3f bd d5 92 51 3e c4 71 b2 3d
       0.17426242 -0.0466908 0.20466168 0.08713105
000310 fd e6 77 be db 31 2b 3e 1e 02 6d be d8 56 e6 bc
       -0.24209209 0.16718237 -0.23145339 -0.028117582
000320 0c 16 66 3e 55 d7 34 be 27 44 04 3e f4 01 98 3e
       0.22469348 -0.17660268 0.12916623 0.2968899
000330 50 4f d6 bc fc 7b 31 be 25 93 64 be 1c 01 82 3d
       -0.026160866 -0.17332453 -0.22321756 0.06347868
000340 a5 ae 06 be f1 8e a4 3e ce f6 09 be 18 81 07 3e
       -0.13152559 0.32140306 -0.13473055 0.13232839
000350 30 1f d3 3e fb 65 ba be 66 fc 8b 3c 64 9d 58 bd
       0.41234732 -0.3640593 0.017088126 -0.052884474
000360 8f 05 54 3e 02 47 d7 3d 50 6e 45 3f f0 5e 27 3e
       0.20705245 0.105115905 0.7712145 0.1634481
000370 42 e0 8a 3c 59 9c 34 3f 54 82 1e bc d2 35 06 3d
       0.016952638 0.7055107 -0.009674627 0.03276617
000380 5a cf 12 3e 35 3a 14 3e 3e 22 c9 bd 11 d3 a2 3d
       0.14336911 0.14475329 -0.09820984 0.07950414
000390 d6 2e 0a 3e 22 6a 20 be 4f 2c 76 3e 4c ea 64 be
       0.13494429 -0.15665486 0.2404034 -0.22355002
0003a0 3e fe 04 be b9 a8 ab bc 15 71 29 3e b0 2a cc 3d
       -0.1298761 -0.020954477 0.16547044 0.099690795
0003b0 b7 d7 d2 bd 72 28 cb 3d 1d 51 23 be fe 03 40 3e
       -0.102950506 0.09919824 -0.15948911 0.18751523
0003c0 5f 48 8b bd db 98 4f be 22 29 42 3e 18 dd 9a bd
       -0.06800913 -0.20273153 0.18961003 -0.075617015
0003d0 ac 17 b9 be af c5 38 3d 6b b3 99 3c 7c 01 cf 3d
       -0.36150873 0.0451104 0.018762311 0.10107705
0003e0 5c 2d 22 3b 2f 96 c2 bd 3a ad e4 3e 91 65 60 3e
       0.0024746275 -0.095013015 0.4466341 0.21913745
0003f0 b5 ca 67 be 6f 23 b9 bd bf 2f 08 be 1f dc 89 bd
       -0.2263592 -0.090399615 -0.13299464 -0.06731438

conv1.bias f4 [32]
000000 42 b1 40 b9 d5 06 d3 37 31 2c a0 b8 61 2c 5c 38
       -0.0001837658 2.5156342e-05 -7.637626e-05 5.249342e-05
000010 3b 77 1d b8 f0 b0 3e b7 bb b5 bb b9 43 7f 07 39
       -3.754276e-05 -1.1366079e-05 -0.0003580282 0.00012922012
000020 63 c6 cc b8 5e c9 2b b9 ad 20 9a b7 4f 7b d7 b7
       -9.7644304e-05 -0.00016382846 -1.8373446e-05 -2.5687417e-05
000030 03 2e 9a b8 60 74 1e 35 72 62 1a b9 63 38 85 39
       -7.3518626e-05 5.9028935e-07 -0.00014723258 0.00025409748
000040 44 6e 55 b8 7e 3d 9c 38 1b 2d 1c b8 e4 45 c5 b9
       -5.088585e-05 7.4501135e-05 -3.7235306e-05 -0.0003762684
000050 4a 88 aa b8 78 64 33 37 5f 9f 1b b7 96 85 cc 39
       -8.1316175e-05 1.0692624e-05 -9.275826e-06 0.0003900944
000060 03 34 64 b8 23 04 2f b9 18 2e 02 39 e8 ea e9 38
       -5.4407876e-05 -0.00016690842 0.00012414937 0.000111540605
000070 99 34 ae 38 ee 66 1a b8 5d 84 89 38 69 74 07 b9
       8.3067636e-05 -3.6812322e-05 6.557324e-05 -0.0001291797

batch_norm1.weight f4 [32]
000000 67 29 96 3f 18 84 94 3f 4f f3 a0 3f ca 78 06 3f
       1.1731385 1.1602812 1.2574252 0.5252806
000010 92 02 f0 3e a9 92 94 3f f7 e5 85 3f bd 50 8c 3f
       0.4687696 1.1607257 1.0460805 1.0962139
000020 73 ec 8d 3f 12 83 56 3f 8d 32 9b 3f e6 d0 74 3f
       1.1087784 0.8379375 1.2124802 0.95631254
000030 54 16 ba 3f 42 0b af 3f 97 eb 73 3f 2c 6b ca 3f
       1.4538064 1.3675311 0.95281357 1.5813956
000040 1e 25 6d 3f b6 47 ab 3f 8f 0d 47 3f 43 2d a5 3f
       0.9263476 1.338126 0.77755064 1.2904438
000050 dc 08 97 3f fb db bb 3f 09 52 5c 3f 91 fa 87 3f
       1.1799579 1.4676508 0.86062676 1.0623342
000060 fd 5e c0 3f be 37 85 3f 95 4c 4c 3f 94 bf 87 3f
       1.5028988 1.0407636 0.79804355 1.060534
000070 3d b8 4a 3f 88 a5 33 3f f3 2c 3c 3f c2 09 92 3f
       0.79187375 0.70174456 0.7350609 1.1409228

batch_norm1.bias f4 [32]
000000 65 d6 43 bf 9c c9 7e bd ea 18 6d be a1 5c 04 bf
       -0.76499015 -0.06220399 -0.23154035 -0.5170384
000010 b0 f3 f2 3c bc 28 5f be c5 d0 b5 be ec 5e 74 3e
       0.029657215 -0.21792883 -0.3551084 0.23864335
000020 02 eb 06 3f 01 12 f9 3d 11 2e 42 be e4 cd 18 3e
       0.52702343 0.12161637 -0.18962885 0.14922291
000030 ed 78 af 3d 19 43 1f 3f 46 c0 b1 3e 28 16 94 3e
       0.08567987 0.6221176 0.34717005 0.28923154
000040 87 a8 78 be 18 f4 a0 be d2 35 09 be 6f 92 03 3e
       -0.24283038 -0.3143623 -0.13399437 0.12848829
000050 2c 6f 81 3e 4d 6b 8a 3e 9e 1c ad 3e 7f 89 8c be
       0.2528013 0.2703499 0.33810896 -0.2744865
000060 5e cd 40 bd 39 2e 44 3e 52 24 e2 bd 1d 0d 25 bf
       -0.047070853 0.19158258 -0.11042084 -0.64473134
000070 6b f0 6e bf 1a 7f f1 be c3 c8 76 3c df d8 d7 bd
       -0.933356 -0.47167283 0.015062514 -0.10539412

batch_norm1.running_mean f4 [32]
000000 d7 1b 3e bd 1a 2e ca bd 01 6a 2f 3d e9 d8 71 3e
       -0.04641327 -0.098720744 0.042825703 0.23617901
000010 d0 e9 3d bf a7 b3 ba bd 92 dd df bd 62 98 d6 3c
       -0.74184895 -0.09116297 -0.10930933 0.026195709
000020 67 0a 8f 3f 2a 4b 97 3d 14 81 ad bd 98 46 c4 3d
       1.117505 0.07387383 -0.08471885 0.09583777
000030 b2 cc 57 3e 5d ef 09 3e f7 76 96 3e f5 09 34 3e
       0.21074179 0.13470216 0.29387638 0.17581923
000040 bd 70 f7 3c 10 8c c4 bd c5 b7 39 be 7b 3b 52 bc
       0.030205125 -0.09597027 -0.18136509 -0.012831564
000050 d1 b0 6d bf 21 4a 68 3d c8 dc e7 3c 02 66 c2 bb
       -0.92847925 0.05671132 0.028303519 -0.0059325704
000060 d0 0e 2f 3d 6f 0c 84 be 14 1c 30 be bd 9b 5e 3d
       0.042738736 -0.25790736 -0.17198211 0.054347742
000070 f0 93 02 3e af 7f a1 bf 9e 63 24 3e 48 33 1c 3d
       0.12751746 -1.2617091 0.16053626 0.038134843

batch_norm1.running_var f4 [32]
000000 d9 eb 5f 3d c4 71 92 3d 68 c1 9f 3c b2 cc 9f 3d
       0.05466828 0.07150605 0.019501403 0.078027144
000010 9f 79 2a 3e fe e5 a3 3d 7f 37 95 3c 79 86 50 3d
       0.16647957 0.08002852 0.01821494 0.050909493
000020 18 20 a3 3e 05 21 02 3d c0 b7 21 3d 83 b7 47 3d
       0.31860423 0.03176977 0.03948188 0.048758995
000030 72 ea 67 3d 79 b4 3e 3d 11 83 2b 3d 8d 94 c7 3d
       0.05662007 0.04655883 0.04187304 0.09745131
000040 3e b6 15 3d 9e 9c 8e 3c ad 87 e3 3d 70 0f 66 3d
       0.036550753 0.017408665 0.111098625 0.056167066
000050 41 57 36 3e d1 e2 42 3d f8 3b 82 3d 38 e6 fb 3c
       0.17806722 0.04757959 0.063590944 0.030749425
000060 4c f3 59 3d 5c 35 92 3d ca c3 c5 3d 12 43 03 3e
       0.05321054 0.07139084 0.096564844 0.12818554
000070 01 3d 6e 3d 54 b7 d5 3e 48 32 bb 3c 23 0e 32 3d
       0.058163647 0.4174143 0.022851124 0.043470513

conv2.weight f4 [16, 32, 3, 3]
000000 bd bb 59 be 52 a5 b9 3d 6e bc e8 3d f4 b4 ad bd
       -0.21263023 0.090647355 0.11364065 -0.0848178
000010 1d a2 62 be 06 3f 87 3c d4 bc 49 3e c2 c8 fc bd
       -0.22132154 0.016509544 0.19700938 -0.12342979
000020 b2 fb d9 be 0b 7d 97 be 8b 09 af 3d f0 0b 06 3d
       -0.4257484 -0.29587588 0.08546742 0.03272623
000030 20 37 2a bc ca 16 8f 3d de 0e 49 3e 27 84 c9 3c
       -0.010389119 0.069867685 0.19634578 0.024599148
000040 84 ab dc 3d 0b 56 c5 3d 25 7b 94 be 75 db b7 3d
       0.107749015 0.09635552 -0.29000202 0.08977405
000050 11 66 67 3e c5 5c 20 be 22 86 f3 3c 3e b9 a2 bd
       0.22597529 -0.15660389 0.029727045 -0.079454884
000060 2c 3e 29 be 61 9e 0a 3e a3 70 0b bd 06 f4 c7 be
       -0.16527623 0.1353698 -0.034042966 -0.39053363
000070 17 5c 6b bd cc 00 bc 3e 7c 70 da bd e1 b0 be 3b
       -0.05746087 0.36719358 -0.10665986 0.0058194255
000080 16 b2 a8 3d 02 93 aa 3b 77 d4 ab bd cc af 23 be
       0.08237092 0.005205513 -0.08390134 -0.1598503
000090 5c 3a 38 be 9f 97 20 be d2 bb c2 3d b2 2d 69 be
       -0.17991012 -0.15682839 0.0950848 -0.22771338
0000a0 0b aa 76 bd d9 5b 68 3c 1a 61 30 be d9 f7 9a 3c
       -0.06022076 0.014182054 -0.17224541 0.018917011
0000b0 e6 2c 6e bd 7a 7b 49 be 37 ae c6 be fe d1 83 3d
       -0.058148287 -0.19676009 -0.3880479 0.06436537
0000c0 29 78 cb bd cd 59 03 be 1b cc 6a 3d 3d 7e 33 be
       -0.09935028 -0.12827225 0.057323556 -0.17528625
0000d0 ff a7 29 be e0 dd 39 bd e1 34 88 3e c0 25 80 be
       -0.16567992 -0.045377612 0.26602843 -0.250288
0000e0 7d 46 78 3e 8e 1e 9a bd 96 eb e6 be ca 45 27 be
       0.24245639 -0.07525359 -0.45101613 -0.16335216
0000f0 7c c9 0a be 9f de 0c be 02 54 c5 bd 6d e8 d2 3e
       -0.13553423 -0.13756798 -0.09635164 0.41192952
000100 67 ab 8f be 3c c7 e9 3d b8 3d 9b 3d ab 93 ac be
       -0.28060457 0.11414954 0.07580131 -0.33706412
000110 c6 dc 5b be 64 d0 83 3e 37 cd 60 be 5c f9 5e be
       -0.21470937 0.25744927 -0.21953283 -0.2177481
000120 0b b4 07 be 8c 2e 90 be 5c af d7 bb 4f 8c 42 bd
       -0.13252275 -0.28160512 -0.0065821838 -0.04749709
000130 83 71 55 be e1 d1 48 be 96 08 78 bc 81 6e 2f be
       -0.20844083 -0.19611312 -0.015138766 -0.17131998
000140 e3 28 6b be e1 e5 b5 3e 33 6e cc bd 81 ff 0e be
       -0.22964816 0.35526946 -0.09981956 -0.13964655
000150 6b c2 5b 3d eb e3 0d bd 92 ae 73 be d2 b4 90 3d
       0.05365221 -0.034641188 -0.23797062 0.07065739
000160 bb 38 89 3c d2 28 f6 3d 51 42 08 3e 33 6b 64 bd
       0.016750684 0.120195046 0.13306548 -0.055766296
000170 4b 28 80 bd d6 99 cc 3c 2b da 36 be 5c 05 ce bd
       -0.06257685 0.024975698 -0.17856662 -0.10059616
000180 fd 40 5f bc 86 5c 32 be df 74 a5 be 42 c5 53 3d
       -0.013626334 -0.17418107 -0.32315728 0.05170179
000190 a9 d0 0b bd 27 1e 05 be 02 ae 9a bc 8b d2 c8 bd
       -0.03413454 -0.12999783 -0.018881802 -0.09805783
0001a0 b7 9a 5e 3d 43 cd d2 3c 04 98 18 3c bd 6e 3b be
       0.054346766 0.025732642 0.009313587 -0.18303962
0001b0 b0 fa 81 3e 76 85 51 be 0b 10 7b be 18 2c 59 3e
       0.25386572 -0.20461068 -0.24517839 0.21208227
0001c0 c0 31 8e be 8e 1c b9 be 29 7f 23 3e 50 ac 05 bd
       -0.2777233 -0.36154598 0.15966477 -0.032635033
0001d0 a9 47 c1 bd e1 68 96 be af 62 7a 3e 06 98 73 3e
       -0.09437496 -0.2937689 0.24451707 0.23788461
0001e0 cf 83 96 be a6 49 a6 bd e3 cc 84 3e 18 24 a4 bd
       -0.29397437 -0.08119516 0.25937566 -0.08014697
0001f0 25 48 c9 bd e5 f4 eb bc 03 39 19 3d ff d7 d7 3c
       -0.098282136 -0.028803298 0.037407886 0.026348112
000200 a2 d8 87 be 53 9e c6 bc 83 ca c0 bd fa 8e 0c be
       -0.26532465 -0.024245417 -0.09413626 -0.13726416
000210 ac 5b 03 be 77 77 f7 3d 81 61 28 be 0a 07 be be
       -0.12827939 0.12083333 -0.16443445 -0.37114745
000220 81 17 80 3e 80 7b c7 3e bc a6 94 bd 7e 75 c9 3e
       0.25017932 0.3896141 -0.072583646 0.39347452
000230 7e de ae 3e 4a 00 66 bd 47 b1 a8 3e fc 7e 6a 3e
       0.34154123 -0.05615262 0.32947752 0.22900003
000240 4a 35 2d 3e 48 cb b6 bd 69 e4 d0 bd 30 2b 30 3d
       0.1691486 -0.089254916 -0.10199816 0.043009937
000250 e6 68 6c 3d 6c 4e e3 be c8 63 d0 3b 75 57 90 bd
       0.057717226 -0.4439577 0.006359551 -0.07047931
000260 0c 36 7d be 80 8e a2 be 5c 95 d6 3c 62 5e 33 bd
       -0.24727648 -0.31749344 0.026194267 -0.043791182
000270 4a 0c 8d bc cb 56 69 be 98 d2 61 3e ce 2d 1d be
       -0.017217774 -0.22787015 0.22052991 -0.15349504
000280 e0 b1 16 bd 8e 6f 9b 3d a8 f9 6d be ae c8 6d 3e
       -0.03679073 0.07589637 -0.23239768 0.23221084
000290 0b d8 8e 3d 18 26 c4 3d 3b 1c 5d 3e 36 9c 90 3e
       0.06974801 0.09577578 0.215928 0.2824418
0002a0 6f 66 99 ba c1 ec 68 3d 97 3c 18 bc 6f 0c 80 3e
       -0.0011703501 0.05686641 -0.0092917895 0.25009486
0002b0 ef c8 a3 be 3d 94 01 be 25 8a dd 3b c5 33 f1 bc
       -0.31989238 -0.12654205 0.006760853 -0.029443631
0002c0 86 72 e9 be 8d 56 10 3e 77 de 49 be cc a3 25 be
       -0.45595187 0.14095517 -0.1971377 -0.16175765
0002d0 8a 57 27 bc e3 d3 fa bd 44 9e ad bd 25 67 0f bd
       -0.010213742 -0.122474454 -0.084774524 -0.035010476
0002e0 77 29 d2 bd fb 05 04 be 6c be 16 be 62 3e a0 bc
       -0.10261815 -0.12892906 -0.14721078 -0.019560996
0002f0 02 60 59 bd 68 0c 34 3e a2 ec b9 bd aa df 53 bc
       -0.053070076 0.17582858 -0.09078337 -0.012931744
000300 f6 9f 4e 3e 8b 37 c1 bd 24 91 3a 3b b2 69 75 3d
       0.20178208 -0.09434422 0.0028467858 0.059915252
000310 e6 a7 75 be 27 03 27 be d1 e3 57 3d 15 3d 7f be
       -0.2398983 -0.16309796 0.052707497 -0.24925645
000320 86 39 6c 3e bb 74 18 bd 5e e2 bf bd 79 5f 4f 3d
       0.23068818 -0.037220698 -0.09369348 0.05062816
000330 0a a1 f2 3c 66 28 2e be ad 84 5c bd b5 bb 96 3d
       0.029617805 -0.17007598 -0.053837467 0.07360021
000340 a0 9e 6a 3d 40 e2 b8 be 6b 86 c0 3d db 15 87 bc
       0.057280183 -0.36110115 0.09400638 -0.016489914
000350 94 94 03 be a0 39 08 3d 64 1f 61 3e 60 22 f2 b9
       -0.12849647 0.03325808 0.21984631 -0.00046183448
000360 d6 d9 50 bd cc 84 00 be 16 3a 30 3d a8 e1 5f 3c
       -0.050988995 -0.12550658 0.043024145 0.0136646405
000370 3f 5e 6f bd 1a fc b1 be 94 f4 3e 3d de f5 9e bd
       -0.05843949 -0.3476265 0.046619967 -0.07761739
000380 5c 0e 8d 3d 74 bf 13 3c 04 a1 89 be 38 0b f6 bb
       0.068875045 0.009017814 -0.26880658 -0.0075086616
000390 c2 82 06 3a 81 b3 9e bd a6 be 5e be aa e0 1f be
       0.0005131179 -0.077490814 -0.21752414 -0.15613046
0003a0 f6 1d 55 be cf 9b 05 be da 83 95 bd 8e 70 99 be
       -0.2081221 -0.13047718 -0.07300539 -0.29968685
0003b0 9d 97 2b 3e a6 40 50 be 8d 1b 5f be ce 64 b0 3d
       0.16757055 -0.20337161 -0.21787854 0.08612977
0003c0 70 14 b1 bd 76 a1 11 be a2 a1 fa bd 7c 1e f7 bd
       -0.08646476 -0.14221749 -0.1223786 -0.12066361
0003d0 47 55 44 be d7 f1 1e bd 2d 31 57 be 36 6b 26 be
       -0.19173156 -0.038804855 -0.21014853 -0.16251835
0003e0 56 a3 2e 3d 26 56 c5 bd 22 fa ea bd df 47 3a bd
       0.042636238 -0.09635572 -0.1147349 -0.045478698
0003f0 ba 9b e8 be 5a 7d ff bc e7 f8 8b 3e 44 c7 39 be
       -0.4543131 -0.031187702 0.27338335 -0.1814242

conv2.bias f4 [16]
000000 e9 21 92 b7 af d0 17 b7 70 5a 32 37 16 57 8c b7
       -1.7420347e-05 -9.048889e-06 1.0630683e-05 -1.6729853e-05
000010 ff 8b b5 37 77 0f 3a 37 f0 c4 00 b7 67 9a 58 37
       2.1642072e-05 1.1090065e-05 -7.675248e-06 1.2910553e-05
000020 d5 4a 33 37 7d 0f 88 b6 27 15 90 b7 fc 6c 30 37
       1.0686655e-05 -4.054919e-06 -1.7175988e-05 1.0515792e-05
000030 62 bf 85 33 ba 7d 90 b4 b3 28 10 b7 06 f9 d9 b7
       6.2281075e-08 -2.6913568e-07 -8.592545e-06 -2.5984376e-05

batch_norm2.weight f4 [16]
000000 e6 49 8b 3f 6c 4c 9d 3f 7e 37 91 3f b4 1a ae 3f
       1.0881927 1.2288947 1.134506 1.3601899
000010 81 e4 78 3f da 63 cd 3f 43 c9 9a 3f ac 8b 54 3f
       0.9722367 1.6046097 1.209267 0.8302562
000020 15 9b 72 3f 7f c7 96 3f 41 85 8b 3f 7c c8 a8 3f
       0.94767886 1.1779631 1.0900041 1.3186183
000030 b6 a9 68 3f 9e ac c2 3f 1d 3e 89 3f 76 67 6d 3f
       0.9088396 1.5208929 1.072208 0.92735994

batch_norm2.bias f4 [16]
000000 93 51 e2 be 72 ed 04 bf f2 4d ef be 1e 58 0b bf
       -0.4420286 -0.5192481 -0.46739155 -0.5443133
000010 61 ad 05 bf f8 84 12 bf 7a d0 fb be d6 14 d4 be
       -0.5221768 -0.57234144 -0.49182492 -0.41422147
000020 25 1e 29 bf 4a b5 27 bf c3 68 f2 be 48 64 c4 be
       -0.6606162 -0.65511 -0.47345552 -0.3835776
000030 48 bd f9 be be 69 03 bf 1e f8 21 bf e7 bf dc be
       -0.48777223 -0.51333225 -0.6326922 -0.4311516

batch_norm2.running_mean f4 [16]
000000 82 2e 91 bf 61 9c 3b 3f 64 af 2f c0 1b b2 4e 40
       -1.1342318 0.7328549 -2.74508 3.2296207
000010 18 a7 b7 bf 32 41 c8 3f 00 08 c9 3f 3d 7a 0c c0
       -1.4347868 1.5644896 1.5705566 -2.1949608
000020 5c d8 1a bf 44 d2 0c 40 6d 5e f8 bf 99 43 c4 bf
       -0.6048639 2.2003336 -1.9403816 -1.5333129
000030 55 56 b1 be 32 0e ac 3f 19 32 8d bf 37 29 2d c0
       -0.3463618 1.3441832 -1.1030914 -2.7056406

batch_norm2.running_var f4 [16]
000000 42 ab 2d 41 43 ca 17 41 9a 9d eb 40 81 ae bb 40
       10.854311 9.48688 7.3629885 5.8650517
000010 f9 fb d8 40 8d 09 b8 40 ec ec 21 41 85 0f 98 40
       6.7807584 5.751166 10.120342 4.7518945
000020 e8 57 f1 40 34 6f 28 41 8d 95 e6 40 b8 b9 06 41
       7.5419807 10.527149 7.2057557 8.4203415
000030 aa a6 ce 40 09 13 f0 40 73 e1 c6 40 5d 71 d2 40
       6.4578447 7.5023236 6.2150207 6.5763383

fc1.weight f4 [32, 1024]
000000 08 16 ae bd 63 7e 23 3d a6 df be 3c 46 ec ba be
       -0.08500296 0.039915454 0.023300003 -0.36508387
000010 63 c1 7a bc a0 c4 23 3e b4 74 1d 3d 56 15 e9 3d
       -0.015304896 0.15992975 0.038441375 0.11381023
000020 8e 4e 03 3e 12 e7 be 3c ee e0 5f 3e 70 79 9c 3d
       0.12822935 0.023303542 0.21863148 0.0764035
000030 bd f1 42 bd 90 b9 95 be b3 b9 97 bb 0b 8a 69 3e
       -0.04759382 -0.29243135 -0.0046302914 0.22806565
000040 ff 2e 02 bd 2a 8d c3 bd 45 9a c7 3d bb 91 98 3e
       -0.0317831 -0.09548409 0.097462215 0.29798684
000050 2f c4 86 bd 68 9e 66 bd 9e 4d 09 3e 22 6e fd 3d
       -0.06580388 -0.05630341 0.13408515 0.12374522
000060 88 18 e8 3c 05 43 9e 3d 80 fb 0d be 9c 86 be 3c
       0.02833201 0.07727627 -0.13865471 0.023257546
000070 10 62 8b bc 74 76 0d be 26 f8 17 be 8f a7 21 3d
       -0.017014533 -0.13814718 -0.14840755 0.039466437
000080 0e ea 44 bd ed 44 78 be fd 99 4f 3d d9 e6 13 3e
       -0.048074774 -0.24245043 0.050683964 0.1444353
000090 44 9c de bd 12 0f 5f 3e 72 04 6f 3d 98 dd d0 3d
       -0.10869649 0.21783093 0.05835385 0.10198516
0000a0 b6 c8 f3 3c d0 d8 84 3d da 28 65 3d d6 7e 27 3e
       0.029758792 0.06486666 0.055947162 0.16356978
0000b0 be b8 14 3e db 8f 22 be 98 8f 3d bd 8f 01 9b bd
       0.14523599 -0.15875189 -0.04627952 -0.07568657
0000c0 1f 9f 56 3d 43 47 e2 bc d5 ca a8 bd 06 e2 3e bd
       0.052397843 -0.02762187 -0.08241812 -0.04660227
0000d0 00 71 9e bd e6 71 e6 3c b0 72 01 be 99 28 c1 bc
       -0.07736397 0.028130483 -0.12641406 -0.023578929
0000e0 18 32 c8 3d 7d ba cc bd 8c 91 4a bc c9 e2 0f 3e
       0.097751796 -0.09996507 -0.012363803 0.14051355
0000f0 75 f1 b4 bd 92 ed a2 be 29 90 f2 3d f5 75 3f 3e
       -0.08835117 -0.31821877 0.118439026 0.18697341
000100 ce 65 ac 3d 03 21 d9 bc 65 7f d8 3c a1 de 81 ba
       0.08417855 -0.026504999 0.026427934 -0.0009908268
000110 86 f1 aa 3d e9 8c 51 3d 5e 3b 41 bc f5 5e 66 3e
       0.08346848 0.051159773 -0.011793939 0.2249716
000120 8d 0d a5 39 23 2c d0 bd 9d d2 9e 3b 4a 9c 0c 3e
       0.0003148135 -0.101646684 0.0048468844 0.13731495
000130 9a 8e 63 3e 22 81 81 3d e3 73 95 3e 53 fe ca 3c
       0.22222367 0.06323458 0.29189977 0.024779474
000140 9c 7f 1e bc 6d b3 8f be 9e 44 60 be 37 43 d8 bd
       -0.009673979 -0.28066579 -0.21901175 -0.10559695
000150 98 f4 8f be 96 d2 bd bd 8a 5e 02 3e ae ce c8 3d
       -0.28116298 -0.09268682 0.12731376 0.09805046
000160 cc 59 38 3e 81 0e 34 3e ec a4 e2 bc fd 81 2a 3e
       0.18003005 0.17583658 -0.027666532 0.16651149
000170 78 5c 97 be 5c 5f 74 be e5 72 50 3e 3e 56 00 be
       -0.29562736 -0.23864502 0.20356329 -0.12532899
000180 3f 0d ab 3e 48 59 64 3d a6 db 04 be 56 45 52 3b
       0.33408543 0.055749208 -0.12974414 0.0032084784
000190 2d d5 08 be d5 74 1c be 20 8d 55 be cd dd 94 3d
       -0.1336257 -0.15278943 -0.20854616 0.07268868
0001a0 45 ce 20 3e ed 05 cc 3d c3 e5 9a 3e c8 8e ca bd
       0.15703686 0.09962068 0.3025342 -0.098905146
0001b0 80 69 e5 bc 71 55 22 bd 56 1e 9c 3d f5 8d dd 3d
       -0.028004408 -0.039632265 0.076229736 0.10818092
0001c0 2d 3e b7 3d 84 a4 a9 3d 1d 24 40 3d 74 d7 e7 3c
       0.08947406 0.08283332 0.04690944 0.028300978
0001d0 48 61 82 3c d3 66 29 bd b7 a4 46 be 16 81 4d be
       0.015915528 -0.041357826 -0.19398771 -0.20068774
0001e0 08 b5 b0 3d 9e 67 9f bd 9c 61 8b be f7 2f 83 be
       0.08628279 -0.07783435 -0.27222908 -0.25622532
0001f0 92 a2 09 be 1a ad d9 bc a9 9f de bd 22 79 c6 bd
       -0.13440922 -0.0265718 -0.108702965 -0.09691073
000200 2b 8d f4 3c 26 fb 0f bd 61 79 df bd 61 af 56 3e
       0.02985247 -0.035151623 -0.10911823 0.20965339
000210 9b 9f 84 bd 74 8b bd 3d ef 70 5b 3d d5 41 9c be
       -0.06475755 0.09255114 0.0535745 -0.30518976
000220 19 77 03 be c8 2a b2 3d 48 ac 12 be c4 52 a6 3d
       -0.12838401 0.08699566 -0.14323533 0.08121255
000230 0f c5 53 3e 24 44 a8 3e 1a b3 9b bd bf 71 67 bd
       0.2068064 0.32864487 -0.0760252 -0.05650496
000240 22 e0 35 3c 34 15 4b 3e 83 ea b6 bd c6 0c 26 be
       0.011100801 0.19832307 -0.08931448 -0.1621581
000250 fd 21 0a 3d 64 6c ba bd 7a 3a 33 3e c6 2e 2f 3e
       0.03372382 -0.09102705 0.17502776 0.17107686
000260 79 d2 86 3d f9 bf 98 3c e3 a9 34 3e 95 2a cf bd
       0.06583113 0.018646227 0.17642932 -0.10115544
000270 c5 fb f7 bd a2 53 23 3e 2f 0f 8d 3b 5c a2 21 3e
       -0.12108568 0.15949872 0.0043047885 0.15784591
000280 04 de 19 be 88 48 4f 3e a7 4e 4d be 04 96 87 be
       -0.15026098 0.20242512 -0.20049535 -0.2648164
000290 72 17 0a 3d 3e bc 31 3e 4f dd ff 3c 00 75 5b be
       0.033713765 0.17356965 0.031233458 -0.2143135
0002a0 df 5f 88 3d ce d2 ac bc d6 71 50 bd f9 65 79 3e
       0.06658911 -0.021096613 -0.050889812 0.24355306
0002b0 4e 06 47 3c d3 8e 7e 3d 3c 01 a6 3d 7a cf 0e be
       0.012147499 0.062147927 0.08105704 -0.13946334
0002c0 81 06 b4 bd 66 e0 67 bd c5 7a 8c bd 17 e0 35 3e
       -0.08790303 -0.056610487 -0.06859354 0.17761265
0002d0 2f de 55 be fb 4c 2a 3d 8d 5e 8d 3b c8 b0 5d be
       -0.20885538 0.04157732 0.00431425 -0.21649468
0002e0 3c 06 4b 3e 09 c5 96 3c f4 b5 a4 bc ea 0d a7 3e
       0.19826597 0.0184045 -0.020106293 0.32627803
0002f0 8a c4 00 be 29 75 f8 3d 1e c0 14 3e 82 fe 34 3e
       -0.12574974 0.121317215 0.14526412 0.17675212
000300 2c 25 5e 3d 24 c3 c3 bd 3c c4 1c 3b e8 2b 72 be
       0.05423467 -0.095587045 0.0023920676 -0.23649561
000310 5b 1c 21 bd 2d 06 9e 3e 34 9b 26 3c 74 32 0a be
       -0.039333683 0.30864087 0.010168839 -0.13495809
000320 cd 19 2b bc 05 2f 81 be a4 39 85 bd 20 13 25 be
       -0.010443163 -0.25231186 -0.06505135 -0.16120577
000330 db 9d b9 3e 7f d8 98 3e 05 66 c1 bc f2 64 4e 3c
       0.36253247 0.29852673 -0.023608217 0.012597309
000340 12 40 06 3e f5 cd 98 bd c4 44 a4 bc cc 43 1c be
       0.13110378 -0.07461158 -0.020052321 -0.15260237
000350 58 46 83 3e e6 06 c4 bd b7 00 a0 3e 44 a3 42 3d
       0.25639606 -0.09571628 0.31250545 0.047518983
000360 77 27 1a 3d 6e 38 ad bd fe eb f0 3d 74 a5 21 be
       0.037635293 -0.08458029 0.11763762 -0.15785772
000370 b0 5e 1c be 98 28 fd bd eb fc 4b 3d 84 c3 48 be
       -0.15270495 -0.12361258 0.04980175 -0.19605833
000380 05 b6 f5 3d 63 3e 08 be 48 00 9b bc 85 ec 23 be
       0.11997608 -0.13305049 -0.018921033 -0.16008194
000390 77 57 78 be f0 f8 42 be 44 01 6b 3d 53 e2 5a 3d
       -0.24252115 -0.19040275 0.057374254 0.053438496
0003a0 18 7c 12 3d 3d 2c 78 bd f9 65 b9 3d cb 13 b4 3a
       0.035762876 -0.060589064 0.09052653 0.0013738809
0003b0 2b 16 ea 3c 07 55 07 be 9e da 53 be e3 9c 61 bd
       0.028575024 -0.13216029 -0.20688865 -0.05508126
0003c0 17 f9 31 3b d7 e7 4c bb be 4b 3f 3c f1 38 72 bd
       0.0027156526 -0.0031266117 0.011675773 -0.059136335
0003d0 6c 05 a5 3d ae 52 93 bd 79 8a 62 3c d1 81 bd be
       0.08057675 -0.07193504 0.01382696 -0.37013105
0003e0 e8 60 b0 bd 23 f1 36 be d5 86 68 3c 86 7e 12 be
       -0.086122334 -0.17865424 0.014192303 -0.14306077
0003f0 43 2a ec bc 11 23 11 3e d0 54 21 be fe 3e 1f bc
       -0.028828746 0.14173533 -0.1575501 -0.009719608

fc1.bias f4 [32]
000000 94 9f 10 3d 90 df 00 be c5 cb b1 3d bd 8c 6b 3d
       0.035308436 -0.12585282 0.08681444 0.057507265
000010 3a 25 42 3e 5a f1 42 be a4 fd 66 be 2a e4 0d 3e
       0.18959513 -0.19037381 -0.22557694 0.13856569
000020 d9 b2 ce bd 7c 4e f5 bc e4 89 16 3c f0 b8 81 be
       -0.10092706 -0.02994465 0.009188149 -0.2533641
000030 6f 18 5e 3e c7 a0 3d 3e 7e d9 6d bd 08 63 f8 3d
       0.21689008 0.18518363 -0.058068745 0.12128264
000040 ab 86 af bd 9d ce 95 be ed 87 89 3b 73 76 5e bd
       -0.08570608 -0.29259196 0.004197112 -0.05431218
000050 b4 40 b9 3b d0 ff 4c be a1 fb 21 3e 90 e0 66 bd
       0.005653465 -0.2001946 0.15818645 -0.056366503
000060 98 cd 3e be b6 77 b4 3d 03 12 28 be 5b 2a 84 be
       -0.18633115 0.088118955 -0.16413121 -0.25813565
000070 8d 3a 85 3e 59 cf 4f be bb 38 3b be 6f d0 13 be
       0.26021233 -0.2029394 -0.1828336 -0.1443498

fc2.weight f4 [2, 32]
000000 fa c5 12 3f 2b 55 53 bf 52 2f 11 3f f8 2b 3a 3e
       0.5733334 -0.8255183 0.5671283 0.18180835
000010 5d fb 34 3f 20 7f 3e bf 02 1d 85 3f 04 28 62 3f
       0.7069605 -0.7441273 1.0399477 0.8834231
000020 46 50 4d 3f e1 26 31 3f c6 90 3b 3f d2 c2 71 3f
       0.8020061 0.6919995 0.7326778 0.944379
000030 53 43 c4 3e db 8f 2e 3f f3 04 ed be eb 1a e3 3e
       0.38332614 0.68188256 -0.46292838 0.44356474
000040 2d ed 6f 3f d2 01 22 3f c3 ab 15 3f 83 6e 9c 3e
       0.93721277 0.6328403 0.5846521 0.30553064
000050 94 d8 23 bf 65 02 83 3f 47 9d 93 3f dd dd dd be
       -0.64002347 1.0235106 1.1532372 -0.4333333
000060 dc 77 eb 3e 0f ac 4b 3f 9b a3 ee 3e 8c c9 1f 3f
       0.45989883 0.79559416 0.46609196 0.6241691
000070 1f 9f 7f 3f c3 35 54 3f 38 ae 2a bf e5 a5 47 3f
       0.99852175 0.82894534 -0.66672087 0.7798751
000080 ea 53 23 bf b2 57 31 3f 88 55 36 bf bc ea 84 be
       -0.6379992 0.6927444 -0.7122426 -0.25960338
000090 50 58 38 bf e1 aa 37 3f f6 f0 5d bf 51 23 6c bf
       -0.72009754 0.71745116 -0.866958 -0.9224139
0000a0 19 a5 4a bf 3f d4 dd be ee e9 30 bf cc 97 58 bf
       -0.7915817 -0.43325993 -0.6910695 -0.84606624
0000b0 7c 1f c6 be 1e 67 e0 be ee 99 a4 3e 2c 58 ae be
       -0.38695896 -0.43828672 0.3214869 -0.34051645
0000c0 a4 a7 71 bf af cf b9 be 25 16 50 bf 7f dc d9 be
       -0.94396424 -0.36291263 -0.8128379 -0.42551038
0000d0 6d 7f 4d 3f 1e 10 55 bf e7 39 87 bf 89 d3 10 3f
       0.8027256 -0.8322772 -1.0564545 0.5657278
0000e0 aa ac 2f bf 46 0e 47 bf 3b 8f 24 bf 79 b0 27 bf
       -0.6862284 -0.77756155 -0.6428105 -0.6550365
0000f0 e1 16 46 bf a8 cd 4c bf af 51 2b 3f d6 ab 37 bf
       -0.7737866 -0.80001307 0.66921514 -0.71746576

fc2.bias f4 [2]
000000 c4 48 a9 bd 22 84 7b 3e
       -0.08265832 0.24562123
